model/keypoint_classifier/keypoint_classifier.tflite (tflite, 6704 bytes, 6 tensors)

arith.constant f4 [8, 16]
00000000: d325 383f 2ba5 343f 411a b5bf 7ae1 8ebf
00000010: 0ae5 e03e 22f6 5b3f 7fda a2bf 2b2c debe
00000020: a44f 13c0 a26f 86bf 591d f23e fc52 b13e
00000030: 167c 02c0 0d5e 473f 1b96 5b3f d0ec 91bf
00000040: f4c3 0c3f 9eb9 ed3e 13a8 28c0 305f 9d3e
00000050: 332f e8be 9cb9 263f a917 1e3f fb1b 8bbf
00000060: 9653 1e3e e989 1cc0 a488 883e 8b25 1cbf
00000070: 614d c63e a52e 73bd 00e1 cebf 3404 0bc0
00000080: cd48 9bbf dcb6 9d3e fe0d c6bc a81e a1bf
00000090: 184e 07c0 1d03 233f 209c 173f f98d 20c0
000000a0: 2463 873e 127a 86bf b46c 2bc0 3aca 3cbf
000000b0: 2e22 c23e c035 de3e c500 3d3f 08b3 413f
000000c0: 66dd 42bf 35f7 6ebf d0a8 ce3e 9490 b33e
000000d0: 45eb 1ec0 12f4 d9be 7b71 b6bc 068d c7bf
000000e0: dabc f23e 6686 c83e e1c3 8ebf 41cd 8d3e
000000f0: ab2d d83b 4fec fc3e fe7e 20bf 9e53 12bf
00000100: 349c 243f f163 64bf d5fc e33e 75c6 c7bf
00000110: 8967 133f 296e 36bf 25e3 cb3d 361d 093e
00000120: 0bda 023f 8864 df3e 48f0 fc3e fd0d 9dbf
00000130: 78f4 a93e f238 a2bf 6ed8 6abe 80bd 723e
00000140: c334 013f 87f1 aebf d4b3 9cbe d1ea 373f
00000150: a50a 273f 3b93 98bf bb17 2abd 609d 593e
00000160: 70fe fdbe 9b4e 13be da5e 0b3f 238a 153f
00000170: 2141 17bf 9159 bcbf 4469 01bf c05e 56bf
00000180: 455b bbbe d4ea 8ebf 721b d73e 8451 143f
00000190: 7ecd ef3d 4645 a5bf 15be f7bf b31f 4e3d
000001a0: d576 e63e 37bf d23e e66e 993e b3ee d53e
000001b0: d577 b6bf e033 0a3f 2588 253f 9486 9ebf
000001c0: 927b 42be ef71 90bf e522 da3e efca e7bd
000001d0: a84e ab3e c261 b4be 11de 033f 06ad 5bbe
000001e0: 0adb ff3e f049 c23e d9d7 43be f625 3ebf
000001f0: 4dfa c03e 29ef 6abf 4bd2 353f 9990 833f
0.71932715 0.70564526 -1.4148637 -1.116256 0.43924743 0.85922444 -1.272293 -0.43393072
-2.3017359 -1.0502818 0.47288015 0.34633625 -2.0388236 0.77877885 0.8577592 -1.1400394
0.549865 0.46430677 -2.6352584 0.30736685 -0.4534851 0.6512697 0.6175485 -1.0867914
0.15461573 -2.4459174 0.2666675 -0.60994786 0.3873091 -0.059370656 -1.6162415 -2.1721315
-1.2131592 0.30803573 -0.024176594 -1.258748 -2.1141415 0.63676625 0.592226 -2.5086653
0.26442826 -1.0506003 -2.6785097 -0.73746073 0.37916702 0.43400383 0.738293 0.75663805
-0.7611908 -0.9334596 0.4036317 0.35071242 -2.4831097 -0.42569023 -0.022270909 -1.5589912
0.47409707 0.39165038 -1.1153527 0.2769566 0.006597241 0.4939904 -0.62693775 -0.5715884
0.6430085 -0.89215 0.44528833 -1.5607439 0.5757986 -0.7126184 0.09955434 0.1339005
0.5111396 0.43631387 0.4940207 -1.2269894 0.33194327 -1.2673628 -0.22934124 0.23705101
0.50471133 -1.3667458 -0.30605948 0.71842676 0.6525062 -1.1919931 -0.041526537 0.2125144
-0.49608183 -0.14385454 0.54441607 0.58413905 -0.59083754 -1.4714833 -0.5055125 -0.8373833
-0.3659307 -1.1165414 0.42013127 0.5793688 0.117091164 -1.2911766 -1.9354883 0.0503232
0.45012537 0.4116151 0.2996742 0.41783676 -1.425532 0.53985405 0.64660865 -1.238482
-0.18992451 -1.128477 0.42604747 -0.113180034 0.33458447 -0.35230833 0.5151072 -0.21452722
0.499718 0.37947035 -0.19125308 -0.74276674 0.37690964 -0.9177118 0.71024007 1.0278503

arith.constant1 f4 [16, 32]
00000000: edd5 763f 09fe 0dbd 2d28 dd3b 6741 24be
00000010: 9c5b eebe 8fae 253f b39b 04be 7023 213f
00000020: 1c29 09be 385d 853f 37a4 213f 9939 853f
00000030: e310 3dbb b764 03bd 14de 3f3e 4873 a93e
00000040: 754e 4abf 44c4 7bbf 32d7 353f 9d32 a63f
00000050: 4a14 6d3f c1e9 203e fa98 26be 44c4 05bd
00000060: 8cda 523c 816e b7bd f579 6b3f 9aac b3bd
00000070: 51a4 d6be c618 1dbe 6067 97bd 3012 6ebe
00000080: 18a1 243e 1394 a6bf a6b7 423e d086 1a3f
00000090: 3df7 4bbf 0056 9bbe ea44 e1be 6d17 bebd
000000a0: 99ed 1b3d 967c 643e 9bf3 663e b830 a4be
000000b0: 6449 b9bf 12f6 32be f0af c7be 4e8c 03bf
000000c0: e78f 0bbf 5ad2 eebe 2901 6f3f 7398 613f
000000d0: 393c 023e b084 a93e 99d6 023f 47e9 abbe
000000e0: 7d62 8c3d fd27 33bf 1438 d93d c6c4 d9be
000000f0: a90b 31bf 1ac3 77bf f69f 97bf dcf9 7fbf
00000100: 0826 04be f399 b23f 8c1e 70bb 9b32 a9bc
00000110: 8c48 73bd 9c6e 133a 87c8 10bf 7ca7 d7bd
00000120: 861b c8bd ee39 23be 0c77 6abe 03bc 0dbe
00000130: 6d7a be3f 53ee 263e 16b0 5ebf a221 49bf
00000140: 69c5 933e b7e7 2c3f 596b e9be 6e9a 21bf
00000150: 741c 5cbe c95f adbc 6545 7d3c 7003 f23e
00000160: 2886 a23a b1b3 603f 0c5c d1bd 3049 09bf
00000170: 84b4 8e3f 2513 cd3f e0f9 c63f e84a 033f
00000180: 4784 b8be 0c61 39be dcd2 85bd d003 42bf
00000190: 847f 873f 63f3 76be 30cb 5f3f 3a4b 2d3f
000001a0: d26a 423d ffd9 96be 5fa3 c83f 0d74 6abe
000001b0: cdf6 583c 5696 b9bd d20c 403f 7e39 5d3f
000001c0: a190 473e 7baa 623d 470a ecbe 1844 f8be
000001d0: 529c 1cbe 0779 5fbe 6f58 79bf 1782 c3bd
000001e0: 93bf 69bd 795f dbbd 05a2 79be c496 073f
000001f0: 47a2 c7bf cdc5 ca3d d8db 353d 4e46 1a3e
00000200: d3df 1d3f d3e3 0f3f c4be 833d 2449 05bd
00000210: 5c61 c53d efc8 633f 0b40 7e3f 6c9d ef3e
00000220: 41ca 563e 943f c33e 9b4e bebe 063a 703f
00000230: 5686 4a3e be7c 013e 943b 9a3f 2b1e 053f
00000240: c64e f73e 7d0b b53e d747 98bd 8b88 083f
00000250: 8cf3 103e c229 c53d 8d2f febc 3379 f13e
00000260: 5eb1 2d3d ca57 2b3f 5ad7 ee3d c3c6 863f
00000270: 4df6 363f 1f02 133e b521 5e3d 41b2 e93d
00000280: e93f 023e 0113 6abf 4357 8f3e ea84 663f
00000290: 4f24 74bf a9cb a6be 2f7a 3ebe 0e1b 16bc
000002a0: ddf9 7cbe 5be6 433e 6c80 393d 6421 cebe
000002b0: 5658 b5bf ba5d 19be 71d2 bbbe b6b9 92be
000002c0: 8efb ffbe d6d7 e1be eead 873f 5c2d 1f3f
000002d0: 248f 76bd 1230 0b3f ea0b 8f3f 6fb2 d0be
000002e0: a5c7 c83d 57e5 29bf e0df 95bd b06f cebe
000002f0: 3412 05bf a713 41bf c5af 71bf 3ee0 8fbf
00000300: 1085 72be 1d99 e7bd 0f47 a13f 9cb5 fabd
00000310: ec53 42bf 819a 6ebf 5fb3 243e 1c12 043f
00000320: fa5b 86bf 4080 09bf 5c3e 4dbe 01a8 3cbf
00000330: b3af 11be 4478 e63e 6001 bd3e 6f8c dc3e
00000340: 3306 cdbd b1c0 adbd 1c94 90be 0ecf 0cbf
00000350: 69d3 e9be d50e da3f b7fe c7bd d695 80bf
00000360: 3018 213f 961b 74be a5e9 9abe ad11 f0bd
00000370: 4ec9 aa3e 1045 8cbd 7750 19bd 3c10 84be
00000380: 55c8 a53e f85a a73e 8c23 383c d3bb 40bf
00000390: 5861 993f 47ee 803f be9b a03f 3794 8bbd
000003a0: 9e45 923f 90dc 0d3e 9620 6fbe b264 4b3f
000003b0: 9c70 ee3d ee86 f33d fe3f 9c3f 4b07 ad3f
000003c0: fbfb f23e b1e1 fa3e 4371 17bf 2765 73be
000003d0: f53f 253e 40a8 8d3d d625 5abf 5ad2 613f
000003e0: 4ac0 6d3d 7eb9 893f 7957 a23e f06c 8c3f
000003f0: 1aee 4f3e 1e4f b83d 6e57 e13c f492 6e3e
0.96420175 -0.034666095 0.006749174 -0.16040574 -0.46554267 0.6471948 -0.1295002 0.629447
-0.13394588 1.0419073 0.63141197 1.0408202 -0.0028849177 -0.03207847 0.1873706 0.33095765
-0.79025966 -0.9834635 0.71031487 1.2984196 0.92609084 0.1571417 -0.16269293 -0.032657877
0.012869488 -0.08956624 0.91982967 -0.087731555 -0.41922238 -0.15341482 -0.07392764 -0.23249125
0.16077077 -1.3013939 0.19015369 0.6036196 -0.7967413 -0.3033905 -0.4399789 -0.09281812
0.038068388 0.22313151 0.22553866 -0.3206842 -1.4475522 -0.17476681 -0.39001417 -0.5138596
-0.5451645 -0.4664486 0.93361145 0.88123244 0.12718286 0.33109045 0.511087 -0.33576414
0.06854723 -0.6998289 0.10606399 -0.4253294 -0.69158417 -0.96782076 -1.1845691 -0.9999063
-0.12905133 1.3953232 -0.00366393 -0.020654013 -0.059395358 0.0005624087 -0.5655598 -0.10529992
-0.09770875 -0.15940067 -0.22896975 -0.13841252 1.4881111 0.16301851 -0.86987436 -0.78566945
0.2886155 0.6754107 -0.45589712 -0.63126266 -0.21495229 -0.021163838 0.0154584395 0.47268248
0.0012399601 0.8777419 -0.10222635 -0.536273 1.1148839 1.6021467 1.5545006 0.5128617
-0.3603842 -0.18103427 -0.06534359 -0.7578707 1.058579 -0.24116282 0.87419415 0.6769291
0.047465153 -0.29463193 1.5674857 -0.22895832 0.013242436 -0.090618774 0.7501956 0.8641585
0.19488765 0.055338364 -0.4610159 -0.4848945 -0.15294006 -0.21823512 -0.97400564 -0.09546297
-0.057067465 -0.10711569 -0.24378212 0.52964425 -1.5596398 0.09901009 0.044399112 0.15065882
0.61669654 0.5620701 0.0643287 -0.032540455 0.096377105 0.88978475 0.9931647 0.4679979
0.20975591 0.38134444 -0.37169346 0.93838537 0.19777808 0.12645242 1.2049432 0.5199916
0.48302287 0.35360327 -0.07435577 0.5333335 0.14155406 0.09627105 -0.031028533 0.4716278
0.04240548 0.6693083 0.11662169 1.0529407 0.71469575 0.14356278 0.054231364 0.11410952
0.12719692 -0.9143525 0.27996263 0.9004656 -0.953679 -0.32577255 -0.18601297 -0.009161724
-0.2470469 0.19130842 0.04528849 -0.4025985 -1.4167583 -0.1497716 -0.36683992 -0.2865731
-0.49996608 -0.44109982 1.0599954 0.6217859 -0.060195103 0.54370224 1.1175511 -0.40761134
0.09803704 -0.6636557 -0.073180914 -0.40319586 -0.519809 -0.7542061 -0.9440883 -1.1240308
-0.23683572 -0.11308501 1.259981 -0.122416705 -0.75909305 -0.93204504 0.1608405 0.5159013
-1.0496819 -0.5371132 -0.2004332 -0.73693854 -0.1422718 0.4501363 0.36915112 0.43075892
-0.10010948 -0.084840186 -0.28237998 -0.5500344 -0.45669106 1.7035776 -0.0976538 -1.0045726
0.6292753 -0.23838648 -0.30256382 -0.117221214 0.33356708 -0.0684911 -0.037430253 -0.25793636
0.32379404 0.3268659 0.011238944 -0.75286597 1.1982832 1.0072716 1.2547529 -0.06815379
1.1427495 0.13853669 -0.23352274 0.79450524 0.11642572 0.1189097 1.2207029 1.3517851
0.4745787 0.49000314 -0.591572 -0.23769055 0.16137679 0.06916857 -0.85213983 0.88211596
0.05804471 1.0759733 0.3170736 1.0970745 0.20305672 0.089994654 0.02750751 0.23298246

arith.constant2 f4 [8]
00000000: b73e 88bf 3fa5 a83f 384c 4c3f dddb 843f
00000010: 427d cabf bd78 92bf 0459 c9be 5938 14bf
-1.0644139 1.3175429 0.798038 1.0379597 -1.5819476 -1.1443096 -0.39325726 -0.5789848

arith.constant3 f4 [16]
00000000: 80b8 413d 1ff1 1f3f f7d5 a33b 9393 fa3e
00000010: a59c 2ebf 8d68 2d3f b767 1d3f da95 f7be
00000020: 6753 dc3e 8585 2dbe 40e4 6fbc ec89 d73e
00000030: 81a2 b33e 30e7 293f 6c6d 92bd ea8e 3dbd
0.047295094 0.62477297 0.004999872 0.48940715 -0.6820777 0.67737657 0.6148638 -0.48356515
0.4303238 -0.16945465 -0.014641821 0.42097414 0.35084918 0.6636839 -0.07149777 -0.04627887

sequential_2_1/dense_6_1/BiasAdd/ReadVariableOp f4 [32]
00000000: 93ef 30bf f079 5ebf a018 ddbe a848 cd3e
00000010: acaa e5bc 0685 e8be 3169 0b3d 7923 9d3d
00000020: 493f 863e cc29 31bf 7abd 953d 5886 a4be
00000030: 7725 4bbf 8676 44bf c914 a03e 457f b53e
00000040: 2635 a0bc a84f a1be a213 013f d7bb d33e
00000050: 30e8 a5be 651b 32be 6f66 bc3e a7a7 bdbe
00000060: 309d f4be 0865 05bf f03c 98bd e174 e03e
00000070: ce2c bbbe f2ac 37bf a071 11bf 507c 8dbc
-0.6911556 -0.8690481 -0.4318285 0.40094495 -0.028035484 -0.4541399 0.034035865 0.076727815
0.26220158 -0.692044 0.073115304 -0.32133746 -0.7935404 -0.7674335 0.31265858 0.3544866
-0.019556593 -0.31506085 0.5042058 0.41354248 -0.32403708 -0.17393263 0.367969 -0.3704197
-0.47776175 -0.52107286 -0.07433498 0.43839172 -0.3655762 -0.7174827 -0.56814003 -0.01727119

sequential_2_1/dense_6_1/MatMul i1 [32, 42]
00000000: 111f a696 dac7 daf2 e3fc e404 f2fc f505
00000010: dd0f 0116 0103 da04 d70b f520 ff01 c400
00000020: c7fe e623 a711 960f 8118 e6e9 f93f 0c19
00000030: e20f ee13 02ff fd01 0603 0c01 effd fa00
00000040: fa02 f102 04f4 09f7 0d81 1888 01f1 fef5
00000050: 0807 181b ed0d 0815 010c fc0a ff06 fe08
00000060: fe05 fd05 0102 fa05 0404 0b12 0781 fc0a
00000070: fe05 0403 0b06 fc09 fd05 0301 0aff 1b0a
00000080: 0781 0db9 08ca f4be 1b10 fc10 e621 da1e
00000090: 211c 1d07 2dfe 1dfe 0c21 f710 f50a f3fb
000000a0: ff26 ef10 0204 0815 13f2 cf7f d532 bd38
000000b0: d041 e7fe f802 ff06 ff01 eefd fd0c 0013
000000c0: 061b 22ff 050b 141c 0e16 38fb 2807 0f04
000000d0: 0404 fdef 8235 b61d ba2f 4938 f9c7 00f8
000000e0: fa02 f406 02f6 20f1 fffc eb11 37ed 5cf4
000000f0: ee08 d30d 21eb efff 9e08 81ff f7f6 4b57
17 31 -90 -106 -38 -57 -38 -14
-29 -4 -28 4 -14 -4 -11 5
-35 15 1 22 1 3 -38 4
-41 11 -11 32 -1 1 -60 0
-57 -2 -26 35 -89 17 -106 15
-127 24 -26 -23 -7 63 12 25
-30 15 -18 19 2 -1 -3 1
6 3 12 1 -17 -3 -6 0
-6 2 -15 2 4 -12 9 -9
13 -127 24 -120 1 -15 -2 -11
8 7 24 27 -19 13 8 21
1 12 -4 10 -1 6 -2 8
-2 5 -3 5 1 2 -6 5
4 4 11 18 7 -127 -4 10
-2 5 4 3 11 6 -4 9
-3 5 3 1 10 -1 27 10
7 -127 13 -71 8 -54 -12 -66
27 16 -4 16 -26 33 -38 30
33 28 29 7 45 -2 29 -2
12 33 -9 16 -11 10 -13 -5
-1 38 -17 16 2 4 8 21
19 -14 -49 127 -43 50 -67 56
-48 65 -25 -2 -8 2 -1 6
-1 1 -18 -3 -3 12 0 19
6 27 34 -1 5 11 20 28
14 22 56 -5 40 7 15 4
4 4 -3 -17 -126 53 -74 29
-70 47 73 56 -7 -57 0 -8
-6 2 -12 6 2 -10 32 -15
-1 -4 -21 17 55 -19 92 -12
-18 8 -45 13 33 -21 -17 -1
-98 8 -127 -1 -9 -10 75 87
